data/gru.pth (torch, 236415 bytes, 7 tensors)

gru.weight_ih_l0 f4 [384, 1]
0.12488691 -0.01483753 -0.020593053 0.017711224 0.033522587 0.02019291 0.018139867 0.079342104
-0.02261104 -0.05030274 0.01942374 -0.0475036 -4.6637888e-05 -0.020108853 -0.04410412 -0.041857876
-0.030274801 -0.032747388 0.0001758896 0.017273644 -0.055303648 0.0033673905 0.09356534 -0.009699886
-0.05098219 0.12513931 -0.0019282227 0.13908999 -0.056210063 -0.0449949 0.13993037 -0.009874118
0.0022310468 -0.0412193 -0.024004674 0.063862376 0.02298724 -0.012434835 0.02203081 0.063294545
-0.010734399 0.0036550877 -0.038121924 0.118513756 -0.01559403 -0.0011879279 0.018866617 -0.029114518
0.050916772 -0.010420909 -0.04122813 -0.035291955 0.013176408 -0.029864794 -0.03499992 -0.0239921
0.054939654 0.03576052 -0.011452547 -0.05452611 -0.016020946 0.017660942 -0.028547017 -0.026131136
0.08914988 -0.07540859 -0.03457781 0.007287661 -0.011816433 -0.002854612 0.097394176 0.009841426
-0.05226662 0.0049581747 0.077094264 -0.020740893 -0.043498106 0.014259605 0.07261632 -0.04210623
0.012752423 -0.03748022 0.064817786 -0.010782162 -0.06756692 -0.0072569703 -0.06202881 -0.0048205145
0.042755928 0.018045139 -0.001226664 0.03856527 0.022469625 -0.075447254 0.12863034 0.122708485
0.012201316 -0.01747496 -0.03993228 0.028502272 0.02939165 -0.051250994 0.02293392 0.03739693
0.03785075 -0.003870483 -0.03551287 0.009416927 0.028749663 -0.0019833583 0.04530176 0.030398833
-0.026527807 -0.0084940735 -0.037797134 -0.01744409 0.0528724 0.06446695 -0.035457212 -0.002255636
0.08236253 -0.05839523 -0.008795808 0.029782707 0.024244275 -0.0105899265 0.13650921 -0.020664474
-0.02755429 -0.039554473 0.019142313 -0.048547037 -0.11622365 -0.1113512 -0.07574927 0.0036599673
-0.09541078 -0.004835047 0.029053172 0.032236304 0.02127267 -0.09635917 -0.03836298 -0.059196666
0.04576555 -0.025985632 -0.071634166 -0.13692413 -0.0954303 0.004089329 0.005802382 -0.08093575
-0.014617324 0.016552381 -0.012705575 -0.08168051 -0.04893242 0.01483849 0.042527232 -0.026797036
-0.067361064 0.015451469 -0.061433498 -0.07570224 -0.06393458 -0.048641406 -0.11967007 0.026126655
-0.044134106 -0.019270439 -0.063263446 -0.07948682 0.05645815 0.03844984 -0.050643515 0.02239045
-0.035257075 0.046091083 -0.0488828 -0.064201005 -0.014402096 0.010610197 -0.05996129 -0.03851494
-0.003511742 -0.13253976 -0.022745082 -0.0014971354 -0.07641934 0.025708726 -0.030487666 0.027508887
-0.05024201 0.0021167353 -0.03409919 -0.0570747 -0.030049887 -0.032991562 -0.06962515 -0.033204544
-0.100036666 0.044629365 -0.0325507 -0.09720105 -0.057040147 -0.027778951 0.00054625864 -0.120938085
-0.014714498 0.044131063 0.011874242 -0.03985269 -0.082508124 -0.07716897 0.058215935 -0.07099673
-0.00017551998 0.022160381 -0.07690782 -0.08342972 0.035284486 0.0034179378 -0.008690524 0.03767743
-0.072846144 -0.0048668175 0.028796824 0.05590322 -0.02942152 0.011701994 -0.047681462 0.025757173
-0.08015588 -0.0030577714 -0.11119525 -0.07552422 -0.118118055 -0.013797883 -0.0037017 0.04572201
0.02011116 0.025495978 -0.06464874 -0.029056367 -0.07889942 0.10584766 -0.07474173 -0.02582893
-0.056065448 -0.0048347963 -0.061618563 -0.106725365 -0.15354477 -0.042242993 -0.0043425993 -0.074477114
00000000: b5c4 ff3d 1d19 73bc c3b2 a8bc 2117 913c
00000010: fb4e 093d 9a6b a53c 0f9a 943c 1d7e a23d
00000020: ca3a b9bc 3f0a 4ebd 891e 9f3c 2393 42bd
00000030: 0d9d 43b8 52bb a4bc 86a6 34bd 2a73 2bbd
00000040: dc02 f8bc 2022 06bd 016f 3839 7581 8d3c
00000050: 1486 62bd 70af 5c3b 2f9f bf3d 45ec 1ebc
00000060: b3d2 50bd 8524 003e 6bbc fcba 9b6d 0e3e
00000070: 863c 66bd 924c 38bd e849 0f3e 0dc7 21bc
00000080: c136 123b 92d5 28bd 73a5 c4bc 47ca 823d
00000090: bd4f bc3c 7abb 4bbc f579 b43c 92a0 813d
000000a0: 55df 2fbc 328a 6f3b bc25 1cbd 57b7 f23d
000000b0: 1a7e 7fbc 3fb4 9bba 2a8e 9a3c 9281 eebc
000000c0: 1b8e 503d 76bc 2abc d4de 28bd 4c8e 10bd
000000d0: dce1 573c 03a7 f4bc 135c 0fbd 158b c4bc
000000e0: 6708 613d 9f79 123d 77a3 3bbc c556 5fbd
000000f0: 5c3e 83bc aead 903c 6fdb e9bc f710 d6bc
00000100: 3694 b63d d26f 9abd 76a1 0dbd 55cd ee3b
00000110: b699 41bc 7114 3bbb 9976 c73d ef3d 213c
00000120: 8615 56bd 2f78 a23b 99e3 9d3d cee8 a9bc
00000130: 122b 32bd 1ea1 693c ddb7 943d 9577 2cbd
00000140: 8aef 503c dc84 19bd 30bf 843d aaa7 30bc
00000150: 8660 8abd e1cb edbb ec11 7ebd 68f5 9dbb
00000160: d720 2f3d 66d3 933c 04c8 a0ba 9ef6 1d3d
00000170: 3812 b83c 1784 9abd acb7 033e 964e fb3d
00000180: 07e8 473c a627 8fbc 0890 23bd 997d e93c
00000190: c2c6 f03c 90ec 51bd ebdf bb3c 862d 193d
000001a0: 6309 1b3d eea7 7dbb f175 11bd 7449 1a3c
000001b0: 6a84 eb3c 3bfb 01bb 578e 393d f906 f93c
000001c0: d850 d9bc ba2a 0bbc 2bd1 1abd e9e6 8ebc
000001d0: bb90 583d 4007 843d 953b 11bd 4bd3 13bb
000001e0: b0ad a83d d62f 6fbd 4b1c 10bc ddfa f33c
000001f0: ee9b c63c 5f81 2dbc 12c9 0b3e 8b48 a9bc
00000200: 89b9 e1bc df03 22bd 57d0 9c3c 42d9 46bd
00000210: aa06 eebd 190c e4bd 6f22 9bbd 10dc 6f3b
00000220: ba66 c3bd 506f 9ebb eb00 ee3c 370a 043d
00000230: 0644 ae3c f557 c5bd 8022 1dbd 3478 72bd
00000240: a874 3b3d d2df d4bc efb4 92bd d735 0cbe
00000250: f670 c3bd c7ff 853b e821 be3b a4c1 a5bd
00000260: 807d 6fbc dc98 873c 0b2b 50bc 1c48 a7bd
00000270: 5c6d 48bd 231d 733c 0931 2e3d 7585 dbbc
00000280: 99f4 89bd 2928 7d3c b1a1 7bbd c709 9bbd
00000290: 22f0 82bd 363c 47bd 9515 f5bd 9107 d63c
000002a0: f7c5 34bd 0add 9dbc 4490 81bd fcc9 a2bd
000002b0: a940 673d 947d 1d3d 936f 4fbd 2d6c b73c
000002c0: b969 10bd 01ca 3c3d 5539 48bd d17b 83bd
000002d0: c5f6 6bbc 64d6 2d3c f899 75bd d7c1 1dbd
000002e0: 4125 66bb 81b8 07be e553 babc 873b c4ba
000002f0: be81 9cbd 1b9b d23c 45c1 f9bc 515a e13c
00000300: 91ca 4dbd edb8 0a3b 98ab 0bbd 29c7 69bd
00000310: 2e2b f6bc 2922 07bd a197 8ebd 7d01 08bd
00000320: 06e0 ccbd 48cd 363d e253 05bd 5811 c7bd
00000330: eea2 69bd af90 e3bc cc32 0f3a 63ae f7bd
00000340: 1415 71bc c6c2 343d 2e8c 423c 933c 23bd
00000350: 05fa a8bd c40a 9ebd d573 6e3d bc66 91bd
00000360: c90b 38b9 b089 b53c d981 9dbd 33dd aabd
00000370: 7786 103d 7bff 5f3b b362 0ebc a653 1a3d
00000380: 5c30 95bd d379 9fbb 51e7 eb3c c6fa 643d
00000390: 6605 f1bc b8b9 3f3c a34d 43bd b500 d33c
000003a0: c428 a4bd e464 48bb 56ba e3bd 71ac 9abd
000003b0: e1e7 f1bd 8410 62bc 3898 72bb 0147 3b3d
000003c0: 29c0 a43c f1dc d03c 8f66 84bd 9e07 eebc
000003d0: 0596 a1bd a8c6 d83d 3112 99bd 3197 d3bc
000003e0: e2a4 65bd 366d 9ebb bf63 7cbd d492 dabd
000003f0: d73a 1dbe fd06 2dbd 5d4c 8ebb 7587 98bd

gru.weight_hh_l0 f4 [384, 128]
0.040681865 -0.04051084 0.0026896899 0.011723807 -0.057983328 0.06333712 0.053610276 0.0096218
0.014390199 -0.0059000924 0.014316525 0.07288226 -0.07857687 -0.024577739 0.0078023034 0.014962514
0.07572028 -0.033440687 -0.013033155 0.0943709 0.063200176 0.031780224 -0.056033064 -0.023353284
0.094766036 0.03967485 0.0059095263 -0.03352159 0.05675121 -0.022276253 -0.011899843 -0.111575045
0.011940706 -0.06311778 0.10898755 -0.04977061 -0.04066204 -0.024492588 -0.09763414 0.0077952133
0.013141336 0.006505799 0.04886931 -0.018007923 0.02426809 -0.08291572 -0.053899672 0.084474474
-0.022792982 0.092405684 -0.0703024 0.0010791854 -0.024950037 -0.014358799 0.02221866 -0.040811233
-0.03179933 -0.055701677 -0.027163703 0.10652569 -0.042331625 -0.06560153 0.039155684 0.103306316
0.043253582 -0.018032076 0.045515656 -0.031763867 -0.0548621 0.069235615 0.067859255 -0.04956178
0.028995387 -0.07853976 0.05753576 -0.07736114 0.07555896 0.046681076 0.07237843 0.059485555
0.043327197 0.05336813 -0.055484537 -0.023899402 0.019504698 -0.060244586 0.024891073 -0.09747467
-0.09452292 -0.019173503 -0.03305688 -0.042448528 0.025989935 0.011516354 0.095681176 -0.028559458
-0.019348795 0.060667314 -0.020480568 0.00011520181 -0.100310765 -0.055506464 -0.068131074 0.093383566
0.085928865 -0.010924027 -0.04916343 0.004808132 -0.0112118805 -0.095982514 0.09798112 -0.042330254
0.04545129 0.046015084 -0.050730985 0.056893557 -0.04613852 0.04585841 -0.06618774 0.059815917
0.022184635 -0.097114295 -0.10392921 0.055187475 0.06770045 -0.074809186 0.021642793 0.011374274
0.008512368 -0.015128593 0.0022185897 -0.043895468 -0.009491346 0.06850616 -0.04431472 0.042530973
-0.11089385 0.024507733 -0.044071976 0.027058555 -0.10881214 -0.075876884 0.09410848 -0.05446527
0.101842724 0.08676112 -0.031522777 -0.0062912074 0.02108534 -0.06909496 0.08305733 0.016362233
0.01744547 -0.08417978 0.029102039 -0.022228288 0.0043777837 0.094665855 -0.03303649 0.026792834
-0.09896585 -0.11260645 0.061193544 -0.039307516 0.07567071 -0.032386232 -0.07960337 -0.027278807
0.09698761 -0.08226167 0.016625876 -0.01705365 0.042567585 -0.093720414 -0.052597586 -0.03827109
0.013218112 -0.07029444 -0.0062569445 0.020254964 -0.001418002 -0.026592625 -0.08070243 0.09180172
0.057149876 0.005680055 0.09176708 -0.08982909 -0.030630494 -0.09029709 0.033062514 0.06514924
-0.036199667 0.035930376 0.02886193 -0.07171858 -0.035049014 0.023498086 -0.011950072 -0.046821386
-0.010679345 -0.046477683 0.08322612 -0.102285475 -0.07877243 0.089369 0.07435656 0.086503625
-0.0838472 -0.0036044216 0.011238441 -0.013042233 -0.029917968 0.063767664 0.059306912 -0.05381905
-0.0010649476 0.045314327 0.030913658 -0.09985207 -0.0247301 -0.053139504 0.11233012 -0.11087233
-0.049467992 0.05477492 -0.04969172 0.03551533 0.050607372 -0.019708838 0.05280992 -0.0068401378
0.04674578 0.0070733065 -0.022400586 0.110302374 0.029132955 -0.08491303 0.087661095 0.061078332
0.012425931 0.09600181 0.080722965 -0.05098555 0.09581886 -0.10996425 -0.035410814 -0.035166014
0.01352277 -0.09701719 -0.016824078 0.028471362 -0.061225906 -0.0643934 0.059900653 -0.0007574833
00000000: 07a2 263d b2ee 25bd 8245 303b 3615 403c
00000010: ed7f 6dbd e4b6 813d 7396 5b3d c1a4 1d3c
00000020: dfc4 6b3c 9055 c1bb dc8f 6a3c 4b43 953d
00000030: e9ec a0bd 4157 c9bc 77aa ff3b 5525 753c
00000040: 3c13 9b3d 1af9 08bd 0489 55bc 8845 c13d
00000050: 186f 813d fb2b 023d ed82 65bd 634f bfbc
00000060: b214 c23d 1882 223d b3a4 c13b ef4d 09bd
00000070: f573 683d b07c b6bc 8ff7 42bc 7581 e4bd
00000080: f3a2 433c e543 81bd dd34 df3d 44dc 4bbd
00000090: 3d8d 26bd aea4 c8bc 68f4 c7bd fd6e ff3b
000000a0: c24e 573c 992e d53b 302b 483d 5a85 93bc
000000b0: e0cd c63c b8cf a9bd e7c5 5cbd f400 ad3d
000000c0: 59b8 babc 313f bd3d b4fa 8fbd 7473 8d3a
000000d0: 0564 ccbc 2b41 6bbc e803 b63c ae29 27bd
000000e0: 0440 02bd 7127 64bd 6a86 debc 242a da3d
000000f0: ed63 2dbd 185a 86bd b661 203d 4392 d33d
00000100: ab2a 313d 01b8 93bc a06e 3a3d d41a 02bd
00000110: 15b7 60bd 67cb 8d3d cbf9 8a3d 4b01 4bbd
00000120: bc87 ed3c 74d9 a0bd 9eaa 6b3d 846f 9ebd
00000130: a8be 9a3d a834 3f3d 243b 943d 20a7 733d
00000140: dc77 313d 8a98 5a3d c143 63bd aec8 c3bc
00000150: 51c8 9f3c 07c3 76bd 5de8 cb3c cda0 c7bd
00000160: 3c95 c1bd c011 9dbc a766 07bd 82de 2dbd
00000170: d8e8 d43c 17af 3c3c 7ef4 c33d 86f5 e9bc
00000180: 5d81 9ebc 4a7e 783d ddc6 a7bc 8098 f138
00000190: bb6f cdbd bf5a 63bd 4e88 8bbd e23f bf3d
000001a0: 79fb af3d b1fa 32bc 985f 49bd 898d 9d3b
000001b0: 09b2 37bc 7b92 c4bd 53aa c83d 7d62 2dbd
000001c0: 222b 3a3d 507a 3c3d 4bcb 4fbd 3809 693d
000001d0: bffb 3cbd 07d6 3b3d 708d 87bd 8901 753d
000001e0: 8dbc b53c dce3 c6bd d6d8 d4bd 430c 623d
000001f0: 89a6 8a3d 8f35 99bd 3a4c b13c 2a5b 3a3c
00000200: 7677 0b3c ebdd 77bc c265 113b bccb 33bd
00000210: 9781 1bbc f54c 8c3d 5a83 35bd f534 2e3d
00000220: 511c e3bd 71c4 c83c d184 34bd e7a9 dd3c
00000230: e6d8 debd 5765 9bbd f2bb c03d fa16 5fbd
00000240: eb92 d03d d0af b13d 071e 01bd 7926 cebb
00000250: 2abb ac3c a981 8dbd f619 aa3d 170a 863c
00000260: cde9 8e3c 7366 acbd 6667 ee3c 1918 b6bc
00000270: 8373 8f3b 2ce0 c13d 4551 07bd a57c db3c
00000280: 9cae cabd 369e e6bd 15a6 7a3d eb00 21bd
00000290: 3ff9 9a3d 6da7 04bd 1707 a3bd ce77 dfbc
000002a0: 71a1 c63d ce78 a8bd fd32 883c 19b4 8bbc
000002b0: 595b 2e3d 7df0 bfbd 9170 57bd 25c2 1cbd
000002c0: c890 583c 88f6 8fbd 0e07 cdbb bded a53c
000002d0: 40dc b9ba c7d8 d9bc 5147 a5bd 8a02 bc3d
000002e0: fd15 6a3d c11f ba3b 61f0 bb3d 50f8 b7bd
000002f0: cdec fabc aeed b8bd 8f6c 073d f76c 853d
00000300: 1a46 14bd bb2b 133d db6f ec3c 31e1 92bd
00000310: 8e8f 0fbd 0f7f c03c 3cca 43bc c8c7 3fbd
00000320: 6bf8 2ebc 625f 3ebd 7572 aa3d 0c7b d1bd
00000330: 7153 a1bd 1807 b73d 4148 983d d028 b13d
00000340: 15b8 abbd 2938 6cbb 7021 383c 17af 55bc
00000350: 8716 f5bc 9f98 823d ceeb 723d 5d71 5cbd
00000360: b695 8bba 849b 393d a43e fd3c 3e7f ccbd
00000370: c796 cabc cfa8 59bd 550d e63d 0811 e3bd
00000380: f39e 4abd ab5b 603d 8c89 4bbd 8678 113d
00000390: ad49 4f3d 6e74 a1bc 374f 583d 3c23 e0bb
000003a0: 8178 3f3d 32c7 e73b 6f81 b7bc 36e6 e13d
000003b0: 3ca8 ee3c e2e6 adbd a987 b33d 462d 7a3d
000003c0: 2296 4b3c 999c c43d 1552 a53d 39d6 50bd
000003d0: ae3c c43d f034 e1bd ee0a 11bd 3d0a 10bd
000003e0: 9c8e 5d3c f3b0 c6bd a6d2 89bc c63c e93c
000003f0: 04c8 7abd b0e0 83bd 635a 753d d891 46ba

gru.bias_ih_l0 f4 [384]
-0.04531445 -0.044918437 0.08126194 0.020025488 0.0026604447 -0.00875155 0.03107486 -0.054110672
0.042333968 -0.0008548147 -0.07094358 0.01496169 -0.1184618 -0.060468268 0.1279433 0.046043575
-0.10445831 0.004431043 0.054610364 -0.010921964 -0.026984233 -0.053825084 0.0757335 -0.021693613
0.029026816 -0.03654808 -0.10176181 -0.0038174645 0.023952289 0.018290227 0.06937521 -0.10381189
-0.089301586 0.03931024 0.004969316 -0.05871969 0.093478546 -0.01787305 -0.019603001 0.081392676
0.05712245 0.052775215 -0.046838813 0.042406503 0.022052854 -0.021733548 -0.022438379 -0.00073228567
0.08564041 -0.025188819 0.0060891206 0.06367391 0.074334346 -0.09141498 0.020294433 -0.0631841
0.020307234 -0.00534733 -0.041776273 0.11555614 0.12304386 -0.043254007 0.0063334093 -0.10190657
-0.016383674 0.006793261 0.008743286 -0.060424373 -0.07803074 0.047664605 -0.046410583 -0.11177872
0.049093522 0.031638134 -0.08507348 -0.026394032 0.0054086037 0.033884864 0.031500194 0.1225244
0.039895076 0.09840738 0.03870883 -0.036650807 0.08106019 -0.0046937475 -0.03634202 -0.053131517
0.035610974 -0.09542436 0.113858424 -0.04291124 -0.09044589 -0.008589237 -0.0034914562 0.049297374
0.035378102 -0.004877285 0.01819344 0.08230482 0.01802534 0.10346582 0.011536156 -0.015335649
0.03988457 -0.064157754 0.00677531 -0.069340736 -0.10767823 0.06439734 0.007533364 -0.08003347
0.055056676 0.039569106 -0.03115523 0.0005480793 -0.122511156 0.14655931 -0.08826838 -0.06523351
0.07615586 -0.03606123 0.036217023 -0.078407705 0.05239452 -0.0888085 -0.0066748196 0.03259565
-0.018250283 0.08854356 0.054881226 -0.046963867 -0.061877646 -0.1223617 -0.017354893 -0.029043062
-0.07612906 -0.13668798 0.008660675 0.016219905 0.014658468 0.022691524 0.010922695 -0.07542732
-0.10399608 -0.023869416 -0.10208805 -0.0023129259 -0.03747435 0.026930034 -0.0336096 0.050506137
-0.0341616 0.046700638 -0.016055068 -0.13519327 -0.012924576 0.001843717 0.035422456 -0.1264434
-0.06544027 -0.10191959 -0.07629376 0.03690486 -0.0080407625 0.066398226 0.10609416 0.055050693
-0.07974196 -0.09004197 -0.13375098 -0.08663042 -0.082444414 -0.013349835 -0.04162244 -0.059915155
-0.055793785 -0.09109947 -0.11157139 -0.14064997 -0.0007650079 0.057013396 -0.009893166 -0.09019954
-0.0069205198 0.06180679 0.14932632 -0.07736791 -0.0886857 0.06862176 0.031938545 -0.06128923
-0.10322711 0.010081919 0.060635652 -0.09257493 -0.052850474 -0.032900684 -0.05041524 -0.03255632
0.0030012375 0.047519438 0.059379112 -0.011619689 -0.07207576 -0.012232163 0.10759155 0.07682511
-0.08169376 -0.08879605 0.09790536 -0.05371328 -0.10232976 0.048293732 -0.08472922 0.078015625
-0.067766264 -0.0009584502 -0.07779896 -0.098644964 -0.032156393 -0.00960803 -0.021542123 0.0026231334
-0.06980116 0.10658309 0.027457621 -0.0641906 0.009025035 -0.054986894 -0.07157329 0.039216623
0.024076587 -0.025578644 0.02174159 0.028049955 -0.039051257 -0.09107496 -0.08816693 0.022473129
0.01657735 0.060113225 0.026714956 -0.011359363 -0.114656836 -0.09392995 -0.05330713 -0.087442696
-0.09603061 0.013518131 -0.09929071 -0.04084828 -0.12878008 -0.078580365 0.058680374 -0.04458929
00000000: a59b 39bd 65fc 37bd a96c a63d 7e0c a43c
00000010: db5a 2e3b a962 0fbc b490 fe3c 27a3 5dbd
00000020: 6266 2d3d a515 60ba de4a 91bd e021 753c
00000030: 1a9c f2bd 93ad 77bd 9203 033e 3098 3c3d
00000040: 3dee d5bd 4832 913b 1eaf 5f3d 0af2 32bc
00000050: 0a0e ddbc b177 5cbd 2a1a 9b3d ceb6 b1bc
00000060: a5c9 ed3c 71b3 15bd 7f68 d0bd 6d2e 7abb
00000070: 9737 c43c 63d5 953c 9714 8e3d 549b d4bd
00000080: c0e3 b6bd c603 213d a5d5 a23b 0f84 70bd
00000090: ae71 bf3d 816a 92bc 7996 a0bc 34b1 a63d
000000a0: 3bf9 693d d32a 583d 0eda 3fbd 71b2 2d3d
000000b0: 30a8 b43c 8e0a b2bc b1d0 b7bc dcf6 3fba
000000c0: 3d64 af3d c858 cebc 3f87 c73b 7867 823d
000000d0: 9b3c 983d c737 bbbd 8340 a63c aa66 81bd
000000e0: 5b5b a63c a838 afbb 991d 2bbd b3a8 ec3d
000000f0: 6bfe fb3d 1d2b 31bd 7d88 cf3b 64b4 d0bd
00000100: 0e37 86bc 019a de3b 0040 0f3c 8c7f 77bd
00000110: 95ce 9fbd f63b 433d 0619 3ebd 3eec e4bd
00000120: 4a16 493d fd96 013d 013b aebd 4c38 d8bc
00000130: a83a b13b dbca 0a3d 5906 013d 13ee fa3d
00000140: 0569 233d cf89 c93d 268d 1e3d 281f 16bd
00000150: e302 a63d 02ce 99bb 5fdb 14bd 6fa0 59bd
00000160: d0dc 113d d96d c3bd 9b2e e93d b2c3 2fbd
00000170: b23b b9bd dfb9 0cbc ead0 64bb 0bec 493d
00000180: a1e8 103d a2d1 9fbb 690a 953c 6e8f a83d
00000190: e1a9 933c e3e5 d33d 2502 3d3c 6042 7bbc
000001a0: 015e 233d 2465 83bd 6b03 de3b 8402 8ebd
000001b0: 6786 dcbd c1e2 833d 70da f63b 97e8 a3bd
000001c0: 1c83 613d 3713 223d 4139 ffbc fbac 0f3a
000001d0: 21e7 fabd a513 163e 0dc6 b4bd 2699 85bd
000001e0: 9bf7 9b3d f1b4 13bd 4d58 143d 3894 a0bd
000001f0: a39b 563d 3be1 b5bd 72b8 dabb 0483 053d
00000200: 9e81 95bc 5356 b53d 23cb 603d 2f5d 40bd
00000210: 6a73 7dbd c598 fabd d92b 8ebc b7eb edbc
00000220: 8de9 9bbd eff7 0bbe 81e5 0d3c 9bdf 843c
00000230: 122a 703c 93e3 b93c 1af5 323c a479 9abd
00000240: e6fb d4bd cb89 c3bc 8a13 d1bd 7594 17bb
00000250: b47e 19bd 609c dc3c 38aa 09bd 86df 4e3d
00000260: 09ed 0bbd 2b49 3f3d eb85 83bc 1b70 0abe
00000270: 9ac1 53bc e0a8 f13a 2317 113d 617a 01be
00000280: 8c05 86bd 38bb d0bd e73f 9cbd 8d29 173d
00000290: 67bd 03bc cbfb 873d e547 d93d d67c 613d
000002a0: c14f a3bd ed67 b8bd 04f6 08be 4a6b b1bd
000002b0: 9ed8 a8bd 44b9 5abc 4b7c 2abd 9869 75bd
000002c0: 0688 64bd 5c92 babd 8a7f e4bd 8c06 10be
000002d0: d08a 48ba e186 693d f216 22bc 89ba b8bd
000002e0: 87c5 e2bb 1e29 7d3d 00e9 183e 1173 9ebd
000002f0: d9a0 b5bd 9189 8c3d fed1 023d 6a0a 7bbd
00000300: bc68 d3bd a22e 253c 175d 783d ed97 bdbd
00000310: bd79 58bd dec2 06bd 3680 4ebd c759 05bd
00000320: 69b0 443b bea3 423d 8337 733d 8260 3ebc
00000330: 759c 93bd 6969 48bc f558 dc3d 7c56 9d3d
00000340: 0f4f a7bd b4da b5bd 9b82 c83d 7502 5cbd
00000350: 4492 d1bd a6cf 453d 8386 adbd a8c6 9f3d
00000360: 0ac9 8abd 8140 7bba 1055 9fbd 5f06 cabd
00000370: 6cb6 03bd 006b 1dbc 1b79 b0bc e0e8 2b3b
00000380: e9f3 8ebd 3c48 da3d ceee e03c 5c76 83bd
00000390: bedd 133c f039 61bd 0495 92bd 9ca1 203d
000003a0: 433c c53c 4e8a d1bc 6b1b b23c 05c9 e53c
000003b0: 36f4 1fbd 8285 babd dd90 b4bd 9119 b83c
000003c0: 39cd 873c 4939 763d 53d9 da3c 9f1c 3abc
000003d0: 34d1 eabd 585e c0bd 9458 5abd 2815 b3bd
000003e0: b2ab c4bd 277b 5d3c ee58 cbbd 8750 27bd
000003f0: edde 03be beee a0bd d55a 703d 42a3 36bd

gru.bias_hh_l0 f4 [384]
-0.054742515 0.05283102 0.081555404 -0.08766406 -0.07745804 0.08187267 -0.032663558 0.003562728
-0.013205118 -0.03426105 0.027224908 0.06694421 0.009256714 0.03369341 0.0014027135 0.02268393
-0.0025252993 0.10868401 -0.03097459 0.0011068279 0.054350663 -0.057444446 -0.07632339 -0.047827408
-0.067066446 -0.056793418 0.008446443 0.06507206 0.025603851 -0.056444205 -0.023267727 -0.0936579
0.029824762 0.0061414586 -0.06289231 -0.0786763 -0.06409655 -0.086383946 0.12851228 0.060442515
-0.0008801781 0.03809229 0.013805857 -0.060044322 -0.099196814 0.038451426 -0.01306547 -0.042591583
0.05942538 0.027083077 -0.0482344 -0.014190391 0.05446179 -0.05166844 -0.03516905 0.07008143
-0.10097523 -0.121519916 0.011627855 0.029398885 0.07887944 -0.023646932 0.092119224 0.032324772
-0.018083261 0.096337885 0.10362764 0.033610098 -0.030129017 -0.074058115 0.07556603 -0.047888085
0.0051659746 -0.09298878 -0.0137381395 0.023189686 0.03963641 -0.0721126 0.06728074 0.039080624
0.07705822 0.080116294 -0.073171765 0.07289811 0.09722487 -0.056961212 0.028193377 -0.050357834
0.019614032 0.04955192 0.082303084 -0.09728031 -0.10026442 0.06445617 -0.07268067 -0.035670344
0.07826196 0.008687297 0.020430226 0.057351977 0.00082877674 -0.06052028 -0.03514054 0.008102921
-0.06885251 0.06344461 0.056754738 0.10261262 -0.030402225 0.03902978 0.0010783654 -0.026724048
-0.060488585 -0.0171677 -0.014339276 0.06912526 -0.11495878 0.0361374 0.020987015 -0.049936023
-0.04743563 0.003350534 0.028991612 -0.071116515 -0.051883437 0.05714541 0.04764349 -0.034204368
0.015867533 0.053747676 0.040060032 0.051692735 0.047836937 -0.10494686 -0.066286914 -0.037649453
-0.0015611834 -0.045699704 -0.0674006 0.08821985 -0.010112811 0.029528573 -0.012277092 -0.09908334
0.01936168 -0.107042596 -0.025577243 0.03520058 0.0013411581 0.120563656 0.014042457 0.06004106
0.025914544 0.002251585 -0.0028744733 -0.10517139 -0.022238381 0.05633846 0.015679026 -0.11071055
-0.04092671 -0.01587496 0.0017165816 -0.042369127 0.0264423 -0.08961639 -0.022034874 0.023870705
-0.05977369 0.028426435 -0.10214555 -0.025708793 -0.08844229 0.07398279 0.02262679 0.015447152
-0.07842579 0.048652716 -0.031425633 -0.0014523001 0.039572343 -0.053662 -0.019111888 -0.062634036
-0.05514689 -0.033800457 0.08688234 -0.003659904 -0.055421825 -0.070170745 -0.097328015 -0.037000123
-0.04735918 0.10532723 -0.014994167 -0.11102298 -0.0721556 0.03465681 -0.114260286 0.004485019
0.10852671 -0.021234699 -0.07991819 0.028696215 -0.12141224 0.021927632 0.026246898 -0.065115266
-0.041032683 0.026316341 0.1086028 0.027549192 -0.1075423 -0.025134087 0.07384493 0.055269107
0.03955834 -0.0008976169 -0.051361892 -0.11259237 -0.08518111 -0.02558661 -0.037755977 -0.06395032
0.0083354125 0.06505256 0.085632905 -0.043431226 -0.064730205 0.010407785 -0.005761799 0.10054138
-0.01637907 0.00094917614 -0.1306166 -0.002995954 0.08237718 -0.127222 0.036163107 -0.07499463
0.11889654 0.09279531 0.03933178 -0.03904769 -0.017139385 -0.053554002 -0.037188537 0.013246369
-0.0004994429 -0.067733586 0.009502703 -0.03898663 -0.0037017246 -0.053943016 0.06620791 0.04866654
00000000: b039 60bd 5765 583d 8506 a73d 3789 b3bd
00000010: 52a2 9ebd dcac a73d 39ca 05bd a87c 693b
00000020: 475a 58bc 5155 0cbd c506 df3c 0c1a 893d
00000030: 79a9 173c 1a02 0a3d 41db b73a a6d3 b93c
00000040: 7e7f 25bb b995 de3d 6cbe fdbc fb12 913a
00000050: cd9e 5e3d de4a 6bbd 704f 9cbd ace6 43bd
00000060: 225a 89bd 37a0 68bd f362 0a3c 8044 853d
00000070: 2bbf d13c 0a32 67bd f69b bebc b7cf bfbd
00000080: 0f53 f43c 4a3e c93b afcd 80bd 0a21 a1bd
00000090: 0d45 83bd 11ea b0bd b998 033e 9292 773d
000000a0: c1bb 66ba a906 1c3d f631 623c 09f1 75bd
000000b0: b327 cbbd 3e7f 1d3d 8e10 56bc 8374 2ebd
000000c0: 0768 733d 54dd dd3c 6f91 45bd d07e 68bc
000000d0: 5313 5f3d 49a2 53bd 6c0d 10bd da86 8f3d
000000e0: 1acc cebd 6fdf f8bd c282 3e3c eed5 f03c
000000f0: 8b8b a13d 36b7 c1bc 01a9 bc3d fb66 043d
00000100: 5923 94bc cc4c c53d ba3a d43d beaa 093d
00000110: 21d1 f6bc c8ab 97bd 5dc2 9a3d 4c26 44bd
00000120: 5647 a93b e770 bebd ef15 61bc 4cf8 bd3c
00000130: ca59 223d c5af 93bd 7cca 893d 0113 203d
00000140: b3d0 9d3d 0314 a43d 14db 95bd 9b4b 953d
00000150: d51d c73d 2950 69bd ccf5 e63c 0444 4ebd
00000160: 9bad a03c f4f6 4a3d 858e a83d e63a c7bd
00000170: 6f57 cdbd 9901 843d 9ad9 94bd 111b 12bd
00000180: ce47 a03d 2a55 0e3c 4a5d a73c e8e9 6a3d
00000190: 4442 593a 1de4 77bd 87ef 0fbd 1dc2 043c
000001a0: 8b02 8dbd 3fef 813d a877 683d 9126 d23d
000001b0: 160e f9bc b1dd 1f3d f057 8d3a 64ec dabc
000001c0: e1c2 77bd 47a3 8cbc 48ef 6abc 8b91 8d3d
000001d0: 826f ebbd cf04 143d f6ec ab3c b789 4cbd
000001e0: dd4b 42bd a294 5b3b d17f ed3c 89a5 91bd
000001f0: ba83 54bd 4e11 6a3d d225 433d e119 0cbd
00000200: a1fc 813c 8626 5c3d fd15 243d c3bb 533d
00000210: aaf0 433d 61ee d6bd 6fc1 87bd 5036 1abd
00000220: 9fa0 ccba 9d2f 3bbd 5309 8abd 9cac b43d
00000230: 34b0 25bc e8e5 f13c db25 49bc 35ec cabd
00000240: 639c 9e3c 2639 dbbd 5e87 d1bc 7c2e 103d
00000250: ccc9 af3a 14ea f63d 5512 663c 9ded 753d
00000260: bd4a d43c 548f 133b a961 3cbb 1964 d7bd
00000270: 442d b6bc 28c3 663d 4d71 803c 36bc e2bd
00000280: c4a2 27bd 340c 82bc ecfe e03a 408b 2dbd
00000290: 869d d83c cc88 b7bd 7b82 b4bc 7f8c c33c
000002a0: 42d5 74bd 8ede e83c b031 d1bd 3f9b d2bc
000002b0: 3b21 b5bd 4a84 973d d15b b93c 0d16 7d3c
000002c0: b39d a0bd 1248 473d 2ab8 00bd 1b5b beba
000002d0: 9c16 223d afcc 5bbd 8990 9cbc 4646 80bd
000002e0: b5e1 61bd 5972 0abd 5eef b13d 00db 6fbb
000002f0: ff01 63bd aeb5 8fbd e953 c7bd 718d 17bd
00000300: b3fb 41bd ceb5 d73d 18aa 75bc 0460 e3bd
00000310: 51c6 93bd 4df4 0d3d 4c01 eabd 11f7 923b
00000320: 4043 de3d 64f4 adbc 26ac a3bd 5314 eb3c
00000330: fba6 f8bd 94a1 b33c bc03 d73c 275b 85bd
00000340: e311 28bd 5e95 d73c 256b de3d d8ae e13c
00000350: 233f dcbd 00e6 cdbc 033c 973d dc61 623d
00000360: ed07 223d 0d4e 6bba d960 52bd d496 e6bd
00000370: 6f73 aebd 039b d1bc 03a6 1abd 63f8 82bd
00000380: 4191 083c 473a 853d 4e60 af3d f1e4 31bd
00000390: 4591 84bd 6a85 2a3c 79cd bcbb a4e8 cd3d
000003a0: 662d 86bc 22d2 783a 5cc0 05be c457 44bb
000003b0: 5eb5 a83d 7c46 02be c41f 143d c996 99bd
000003c0: 0780 f33d 780b be3d 5c1a 213d 78f0 1fbd
000003d0: e567 8cbc 715b 5bbd 0253 18bd 4c07 593c
000003e0: 0ced 02ba e8b7 8abd 3ab1 1b3c 72b0 1fbd
000003f0: a298 72bb 5af3 5cbd 0398 873d 9156 473d

line1.weight f4 [64, 128]
0.014066377 -0.13140057 -0.07936315 -0.025840007 -0.116292834 0.020794211 0.06807793 0.13717002
-0.047204804 0.16149382 0.01193738 0.18295562 -0.18275703 -0.12578806 0.09783992 0.017197583
0.053973608 0.06341112 0.036506467 0.13245052 -0.042471886 -0.04463034 0.008616374 -0.11590968
0.073621444 -0.14201157 0.11361047 -0.043680348 -0.129495 0.1287984 0.06820154 -0.0923162
-0.029292528 -0.0258421 0.116946496 -0.09436413 0.12796432 0.15313625 -0.1586653 -0.11063316
0.14046259 -0.13652559 0.14934124 0.14679526 -0.15851589 -0.10060687 -0.06066185 0.15439963
-0.02972354 0.15160565 -0.08213528 0.13801946 -0.09353304 -0.11755251 -0.020478886 0.102568984
0.009756803 -0.043104503 0.14568223 -0.06954775 -0.11971458 -0.107895404 -0.090489276 0.17762403
-0.05977426 0.021973992 -0.029587032 -0.1122425 -0.15988553 -0.10293523 0.036182784 0.04267343
-0.06894456 -0.18694898 0.13550687 -0.14859915 -0.07092403 0.09676722 0.08094726 0.13783549
-0.10698139 0.011644433 0.061076995 0.095184185 -0.154721 -0.085287474 -0.14105101 -0.06776678
-0.14841342 -0.082567625 -0.18142278 -0.13721637 -0.02723815 -0.11535032 0.14520912 -0.024721783
-0.14906953 -0.111915536 0.10682849 -0.09464335 -0.068454966 0.11541954 -0.044882428 0.020272428
0.11638794 -0.10303463 0.09338932 0.041965872 -0.025601448 -0.080829926 0.011776732 -0.16226965
0.17446215 0.092724636 0.047967322 -0.1284646 0.054279447 -0.06509592 -0.15670866 -0.17502207
-0.117374815 -0.17652543 -0.1701999 0.10080865 -0.036518954 -0.070743136 -0.10518371 0.107761234
0.027094647 -0.060835157 -0.043590214 0.018923437 -0.07159246 0.12276339 0.040317785 0.008287471
-0.08511181 0.014441304 0.13488969 0.0971148 -0.09061165 -0.00011821515 0.15714012 0.05148061
-0.0038336513 0.15380342 0.11956815 0.05018395 -0.110931255 -0.05614975 0.123107776 -0.06944529
0.08281308 -0.07129029 0.016934019 -0.10098869 -0.015846428 0.053366743 0.14426377 -0.1308997
-0.068353854 -0.0188552 0.034676906 -0.07835846 0.054477032 0.14091195 -0.08848155 -0.07811136
0.13081953 -0.010199389 0.07096519 0.043651495 -0.015563813 -0.0022026498 -0.10109155 0.06930821
-0.046042114 0.021070592 -0.03482227 0.010142925 -0.09792398 -0.09212621 -0.07909277 0.14300665
0.07484489 -0.0523867 0.17475758 -0.1113939 0.00756998 -0.14461307 -0.1399396 0.031894796
-0.026026627 0.11287549 -0.15915067 -0.1284466 0.0061170724 0.014034529 0.010704117 0.12950721
-0.046278197 -0.013515256 0.018101575 0.008227674 -0.091664016 0.06928763 0.049286313 0.11907794
-0.0063557555 0.0708362 0.039887182 0.1409602 -0.029961245 -0.12429111 -0.036840953 -0.035600286
0.002917947 -0.056771733 -0.03945714 -0.10809905 -0.076151215 -0.13281904 0.04047831 -0.012996243
-0.041434947 -0.09780614 0.03266358 0.0146021545 -0.021388613 0.007864753 -0.06658304 -0.003029704
0.09208815 -0.09351201 0.086767845 0.12896633 -0.011141734 -0.056783803 0.043755393 -0.0538968
0.052744232 0.09330375 0.12651598 -0.022832092 0.09839369 -0.09782031 -0.0606347 0.021790897
-0.071992315 -0.11975558 -0.08518557 0.0026997952 -0.059814297 -0.15819897 -0.059040636 0.12707558
00000000: a976 663c df8d 06be 2689 a2bd 6cae d3bc
00000010: f02a eebd 9f58 aa3c 716c 8b3d 4c76 0c3e
00000020: d359 41bd a35e 253e 0095 433c b858 3b3e
00000030: a924 3bbe 96ce 00be 4c60 c83d f2e1 8c3c
00000040: 6e13 5d3d b0dd 813d ce87 153d 1ca1 073e
00000050: 00f7 2dbd 4ece 36bd b12b 0d3c 0e62 edbd
00000060: d7c6 963d 7b6b 11be 9bac e83d 2aea 32bd
00000070: 569a 04be bae3 033e 40ad 8b3d 4710 bdbd
00000080: e2f6 efbc d0b2 d3bc a581 ef3d fb41 c1bd
00000090: 1409 033e c0cf 1c3e 2879 22be a393 e2bd
000000a0: 6dd5 0f3e 5dcd 0bbe e9ec 183e 7f51 163e
000000b0: fd51 22be fa0a cebd 8f78 78bd f01a 1e3e
000000c0: c87e f3bc 833e 1b3e 8b36 a8bd f954 0d3e
000000d0: 408e bfbd 5fbf f0bd 56c3 a7bc b00f d23d
000000e0: ffda 1f3c 598e 30bd b92d 153e 0d6f 8ebd
000000f0: eb2c f5bd 44f8 dcbd 7152 b9bd 13e3 353e
00000100: dbd5 74bd cd02 b43c 8160 f2bc 65df e5bd
00000110: 08b9 23be b5cf d2bd 6634 143d 56ca 2e3d
00000120: ce32 8dbd 8e6f 3fbe 50c2 0a3e 602a 18be
00000130: 9e40 91bd e42d c63d adc7 a53d bf24 0d3e
00000140: 0f19 dbbd 4bc8 3e3c df2b 7a3d edef c23d
00000150: 2f6f 1ebe 33ab aebd ad6f 10be 4fc9 8abd
00000160: b0f9 17be 3719 a9bd e5c6 39be 7382 0cbe
00000170: 8a22 dfbc ca3c ecbd b3b1 143e 5685 cabc
00000180: afa5 18be f933 e5bd e5c8 da3d 5fd4 c1bd
00000190: 1e32 8cbd 1461 ec3d a3d6 37bd 5d12 a63c
000001a0: cd5c ee3d d203 d3bd e642 bf3d 68e4 2b3d
000001b0: 21ba d1bc 298a a5bd 32f3 403c 042a 26be
000001c0: 35a6 323e 6ae6 bd3d 6279 443d 398c 03be
000001d0: 2054 5e3d 0251 85bd 3c78 20be fc38 33be
000001e0: 3562 f0bd 15c3 34be e248 2ebe c474 ce3d
000001f0: e694 15bd c7e1 90bd 8f6a d7bd ecb1 dc3d
00000200: 98f5 dd3c 492e 79bd a78b 32bd 5305 9b3c
00000210: 119f 92bd 5f6b fb3d 4324 253d 2cc8 073c
00000220: 1a4f aebd 389b 6c3c 8620 0a3e 20e4 c63d
00000230: 9a92 b9bd 47ea f7b8 57e9 203e 55dd 523d
00000240: ff3d 7bbb a57e 1d3e 25e0 f43d b08d 4d3d
00000250: ed2f e3bd 48fd 65bd ee1f fc3d 5539 8ebd
00000260: e799 a93d a500 92bd 36b9 8a3c 29d3 cebd
00000270: 5ed0 81bc 1697 5a3d e2b9 133e 920a 06be
00000280: 1bfd 8bbd 3876 9abc 5f09 0e3d 667a a0bd
00000290: 4f23 5f3d 394b 103e d135 b5bd d9f8 9fbd
000002a0: 8ef5 053e 571b 27bc 3356 913d e9cb 323d
000002b0: 5dff 7ebc 555a 10bb 1609 cfbd 76f1 8d3d
000002c0: a896 3cbd 3c9c ac3c cca1 0ebd 832e 263c
000002d0: 5e8c c8bd abac bcbd 64fb a1bd 5670 123e
000002e0: 4748 993d 7093 56bd a7f3 323e 7c22 e4bd
000002f0: 980d f83b 7315 14be 544c 0fbe 1ea4 023d
00000300: cb35 d5bc 442b e73d 65f8 22be 8187 03be
00000310: b971 c83b 15f1 653c 5260 2f3c 8a9d 043e
00000320: 358e 3dbd 186f 5dbc c149 943c 5ecd 063c
00000330: 58ba bbbd ace6 8d3d 72e0 493d 23df f33d
00000340: f143 d0bb 9212 913d be60 233d df57 103e
00000350: 4971 f5bc 568c febd 8ae6 16bd 9bd1 11bd
00000360: 073b 3f3b 7a89 68bd cf9d 21bd 0963 ddbd
00000370: 2bf5 9bbd b701 08be 96cc 253d 32ee 54bc
00000380: b1b7 29bd 964e c8bd 3fca 053d e03d 6f3c
00000390: 2c37 afbc 2adb 003c b05c 88bd 008e 46bb
000003a0: b698 bc3d 3a83 bfbd 57b3 b13d c00f 043e
000003b0: d28b 36bc 2296 68bd db38 333d e4c2 5cbd
000003c0: 560a 583d 0916 bf3d 688d 013e 5e0a bbbc
000003d0: a282 c93d 0456 c8bd 175c 78bd d382 b23c
000003e0: b570 93bd 6a42 f5bd c675 aebd 0cef 303b
000003f0: d6ff 74bd e9fe 21be 98d4 71bd 1a20 023e

line1.bias f4 [64]
0.008297191 0.025198871 0.09582411 0.0073333783 0.011961558 0.03888397 0.07531795 0.024018785
0.04194193 -0.14527436 -0.042932153 0.07352379 -0.13585693 0.004336224 0.10777895 0.03969572
0.01824597 0.08449554 -0.064199835 0.104610726 0.09398794 0.078305855 -0.1313383 -0.11999845
0.096049465 0.042446557 0.13932867 0.009274023 0.009013344 0.06282801 -0.0053155147 0.14465359
0.0072514513 0.043988977 0.072688356 -0.015326971 -0.0037518446 0.08116832 -0.07082473 0.13455585
0.10119224 0.034202017 0.14887549 0.04311265 0.0005228496 0.023826186 -0.046401143 -0.09589664
-0.087011345 0.011416412 0.045168705 0.11522757 0.1404299 -0.044595342 -0.029768419 -0.09728143
-0.1018003 0.11665069 -0.0005556755 0.033399824 -0.028909475 -0.008601925 -0.03951391 0.09288041
00000000: f1f0 073c dd6d ce3c 6e3f c43d d64c f03b
00000010: 69fa 433c cc44 1f3d 4c40 9a3d 0bc3 c43c
00000020: 4dcb 2b3d cdc2 14be a0d9 2fbd a493 963d
00000030: 141e 0bbe e216 8e3b 36bb dc3d fb97 223d
00000040: 9378 953c ff0b ad3d 347b 83bd 263e d63d
00000050: c07c c03d d25e a03d 8c7d 06be bfc1 f5bd
00000060: 95b5 c43d 71dc 2d3d 2dac 0e3e 12f2 173c
00000070: b4ac 133c f9ab 803d c52d aebb 1220 143e
00000080: 959d ed3b c92d 343d a2dd 943d fa1d 7bbc
00000090: 82e1 75bb 933b a63d 8e0c 91bd 02c9 093e
000000a0: e13d cf3d 6a17 0c3d d172 183e e496 303d
000000b0: d80f 093a 222f c33c 200f 3ebd 7565 c4bd
000000c0: 0133 b2bd e70b 3b3c d202 393d 6ffc eb3d
000000d0: dbcc 0f3e 9ba9 36bd e6dc f3bc 7d3b c7bd
000000e0: ad7c d0bd 8fe6 ee3d c0aa 11ba 41ce 083d
000000f0: 90d3 ecbc 17ef 0cbc 56d9 21bd 1638 be3d

line2.weight f4 [1, 64]
0.10182807 0.12319184 0.1829864 -0.20550703 0.095599644 0.16291143 0.13098665 -0.18318842
0.12714808 -0.13219427 -0.11118255 0.11405676 -0.16743529 0.10380642 0.09763306 0.19206391
0.11943792 0.14093591 -0.10747433 0.1547366 0.14699426 0.1596475 -0.1687383 -0.1643918
0.123048365 0.1382897 0.19369826 0.13882387 0.15836717 0.21033959 0.13008282 0.12996708
0.19322115 0.11036085 0.1581393 -0.18170731 -0.12617198 0.1012507 -0.101652995 0.12904438
0.13163236 0.16347603 0.14560792 0.118592165 -0.16887733 0.16065586 -0.16855544 -0.18375489
-0.15887643 0.19221966 0.1600676 0.17683299 0.09618507 -0.11322122 0.20477712 -0.19548023
-0.173961 0.20529974 -0.1688043 0.12607935 -0.119970076 -0.10518664 -0.09719832 0.14095281
00000000: 3c8b d03d 014c fc3d c960 3b3e 6f70 52be
00000010: bfc9 c33d 41d2 263e 5d21 063e bf95 3bbe
00000020: 1b33 023e ef5d 07be adb3 e3bd 9796 e93d
00000030: 2874 2bbe 7698 d43d d7f3 c73d 67ac 443e
00000040: de9b f43d 8151 103e 801b dcbd 4573 1e3e
00000050: aa85 163e a27a 233e bcc9 2cbe 5356 28be
00000060: c800 fc3d d19b 0d3e d658 463e d827 0e3e
00000070: 012b 223e 4363 573e 6e34 053e 1716 053e
00000080: c4db 453e df04 e23d 45ef 213e 7b11 3abe
00000090: 3a33 01be 875c cf3d 722f d0bd 3624 043e
000000a0: a2ca 063e 4366 273e 3e1a 153e 73e0 f23d
000000b0: 2eee 2cbe f882 243e cc99 2cbe 3e2a 3cbe
000000c0: 81b0 22be 3bd5 443e c3e8 233e b513 353e
000000d0: aefc c43d 87e0 e7bd 18b1 513e f82b 48be
000000e0: d522 32be 183a 523e 09db 2cbe f21a 013e
000000f0: dfb2 f5bd 186c d7bd ea0f c7bd ef55 103e
